…
/usr/users/ia2vr/ia2vr_11/Documents/ASDL/ASDL/TP1/pytorch_lab/src/torchtmpl/main.py config.yaml train

 Config : {'data': {'root_dir': '/mounts/datasets/datasets', 'batch_size': 128, 'num_workers': 4, 'valid_ratio': 0.2}, 'nepochs': 20, 'logging': {'logdir': './logs'}, 'model': {'class': 'FFN'}} 

## Summary of the model architecture
==========================================================================================
Layer (type:depth-idx)                   Output Shape              Param #
==========================================================================================
Sequential                               [128, 101]                --
├─Flatten: 1-1                           [128, 49152]              --
├─Linear: 1-2                            [128, 32]                 1,572,896
├─ReLU: 1-3                              [128, 32]                 --
├─Linear: 1-4                            [128, 101]                3,333
==========================================================================================
Total params: 1,576,229
Trainable params: 1,576,229
Non-trainable params: 0
Total mult-adds (M): 201.76
==========================================================================================
Input size (MB): 25.17
Forward/backward pass size (MB): 0.14
Params size (MB): 6.30
Estimated Total Size (MB): 31.61
…
